RL_navigation_project/checkpoint.pth (torch_old, 28417 bytes, 6 tensors)

fc1.weight f4 [64, 37]
-0.066507995 0.065202646 -0.085494064 -0.28831062 -0.23742121 0.23240441 0.0018562181 -0.004163403
-0.52002424 -0.4302502 -0.28589967 0.21096712 0.06523415 -0.3097185 -0.66034645 0.045342695
0.13097152 0.0016922189 -0.18076293 -0.62067515 -0.111232646 0.34063432 0.023078129 0.044164825
-0.7997398 0.09668608 0.16478217 -0.07205176 -0.06269531 -0.76844317 0.057697233 0.16030212
-0.2614846 -0.55449414 -0.9319169 -0.05228574 0.009196179 0.119257964 0.12121509 0.0040314943
0.106852986 -0.268901 -0.016140573 -0.3152772 -0.046815977 -0.04900524 0.21239269 0.05620288
0.06605478 0.11558909 -0.0020419215 -0.22874157 0.19431609 -0.003999238 -0.00013692776 0.027164623
-0.12345268 -0.093946286 -0.07419781 -0.13573435 0.019061219 -0.098173745 -3.264571e-05 0.13440312
-0.1191529 -0.10774147 -0.09932532 0.04220404 -0.018451951 0.053345624 0.22922593 -0.043750063
0.3604607 0.013180542 -0.043431684 -0.047794126 0.044500098 -0.2572499 -0.28121138 -0.8217377
0.3132042 -0.08487984 -0.14118843 -0.15882428 -0.20259099 0.11249394 -0.17612343 0.04207597
0.17304605 -0.37260845 0.10537798 0.27766466 -0.07132636 0.17819294 -0.2994442 -0.1843521
0.06321525 -0.113244556 0.23394448 -0.40009397 0.015027032 0.35386902 -0.43367022 -0.8949737
-0.54682565 -0.04028148 0.1392972 -0.3218838 -0.079437986 0.013382832 0.033067774 0.15169486
0.22307502 0.15542004 -0.14010406 -0.1688601 -0.12741905 -0.006931975 0.23262674 0.18167469
-0.41876176 0.42002296 -0.9357502 -0.18096983 -0.30274817 -1.3718177 -0.09471351 -0.024501413
0.15294234 -0.16149926 -0.07802248 0.008088721 0.12730874 0.13210735 0.15007219 -0.030293604
0.13934018 -0.057635203 0.17037493 0.02567668 -0.02671954 0.16314001 0.16632639 0.19981183
-0.010586857 -0.09751623 -0.01132872 -0.0061645354 -0.1751925 -0.30603987 -0.089581676 -0.100563094
-0.15808488 -0.09753789 0.40437347 -0.1688499 -0.32031113 -0.87749565 0.05594234 -0.2593372
-0.0015965812 -0.12129825 -0.2100528 -0.48075488 0.0003161516 -0.18588726 0.26202816 0.6592275
-0.024515916 -0.09834673 0.114960425 -0.16837822 -0.18944842 0.036741864 0.033380464 -0.14643286
-0.27808973 -0.2701583 -0.033087347 0.20244643 -0.09639729 -0.3925065 -0.55415285 0.077763714
0.010602023 0.005552231 0.16053481 -0.18923962 -0.33048114 -0.23865321 -0.04190478 0.3411091
0.1369605 -0.47702098 0.065248765 -0.34965998 -0.1371557 0.029527938 0.078216225 0.39484262
-0.19896705 0.109973826 -0.10607763 -0.14725341 -0.9347733 0.05202186 -0.15532571 -0.078612655
0.30845073 0.50018007 -0.2183118 -0.073519826 0.07711055 0.028249066 -0.24937706 -0.14950727
0.15664047 0.060030576 -0.18312594 -0.9604197 0.046975903 0.002261474 -0.30628684 0.17253448
0.010154227 -0.22482617 0.3531974 0.19763583 -0.63648957 0.17309764 -0.25563288 -0.12461331
-0.15023237 0.117166996 -0.024233613 0.22843139 -0.091210745 -0.43083817 -0.062403616 0.13162541
0.00056985585 0.050153013 -0.07014905 -0.0065149725 0.00918632 -0.12015956 0.35855594 -0.14866437
-0.19510467 0.067551896 -0.21548337 -0.10733686 -0.0141810095 -0.23720144 0.16129187 -0.002940532
00000000: 5835 88bd f788 853d 8317 afbd 739d 93be
00000010: 8c1e 73be 6cfb 6d3e 584c f33a 286d 88bb
00000020: 4f20 05bf c149 dcbe 7161 92be c407 583e
00000030: 7b99 853d 6c93 9ebe 770c 29bf 43b9 393d
00000040: 661d 063e 72cd dd3a eb19 39be 91e4 1ebf
00000050: f1cd e3bd 9f67 ae3e 580e bd3c 2de6 343d
00000060: bfbb 4cbf 5a03 c63d a8bc 283e e08f 93bd
00000070: 6666 80bd b1b8 44bf ef53 6c3d 3d26 243e
00000080: 4fe1 85be 54f3 0dbf 1b92 6ebf 9229 56bd
00000090: 92ab 163c 853d f43d 9e3f f83d a01a 843b
000000a0: bdd5 da3d 64ad 89be 3c39 84bc 036c a1be
000000b0: 1cc2 3fbd b8b9 48bd 787d 593e fe34 663d
000000c0: ba47 873d f9b9 ec3d c2d1 05bb 3b3b 6abe
000000d0: ccfa 463e 0a0c 83bb 4494 0fb9 5888 de3c
000000e0: c2d4 fcbd e966 c0bd 05f5 97bd f2fd 0abe
000000f0: 4626 9c3c 510f c9bd 10ed 08b8 f9a0 093e
00000100: 7006 f4bd 8fa7 dcbd 136b cbbd 25de 2c3d
00000110: 8c28 97bc f180 5a3d 34ba 6a3e 4433 33bd
00000120: 4e8e b83e 33f3 573c 6ce5 31bd c6c3 43bd
00000130: bc45 363d 42b6 83be f0fa 8fbe 675d 52bf
00000140: 4d5c a03e 7bd5 adbd b393 10be d5a2 22be
00000150: 0374 4fbe 3963 e63d b359 34be da57 2c3d
00000160: fc32 313e 89c6 bebe 69d0 d73d 102a 8e3e
00000170: 8e13 92bd 3678 363e c050 99be ccc6 3cbe
00000180: ff76 813d c3ec e7bd 248f 6f3e 1ed9 ccbe
00000190: f133 763c 522e b53e 060a debe ff1c 65bf
000001a0: c4fc 0bbf 31fe 24bd eda3 0e3e f4cd a4be
000001b0: 62b0 a2bd aa43 5b3c 1372 073d e655 1b3e
000001c0: c76d 643e 6e26 1f3e 7077 0fbe a9e9 2cbe
000001d0: 247a 02be 9f25 e3bb b435 6e3e ee08 3a3e
000001e0: f167 d6be 400d d73e 538d 6fbf 2850 39be
000001f0: cf01 9bbe b997 afbf 28f9 c1bd 30b7 c8bc
00000200: eb9c 1c3e 1060 25be 40ca 9fbd 8e86 043c
00000210: 395d 023e 2647 073e 86ac 193e 4b2a f8bc
00000220: 31af 0e3e e412 6cbd c476 2e3e e757 d23c
00000230: f0e2 dabc 2d0e 273e 7751 2a3e 799b 4c3e
00000240: 7f74 2dbc 97b6 c7bd 189c 39bc dfff c9bb
00000250: aa65 33be 42b1 9cbe 9976 b7bd 06f4 cdbd
00000260: 01e1 21be f2c1 c7bd 0a0a cf3e fde6 2cbe
00000270: d2ff a3be 8ea3 60bf cc23 653d d8c7 84be
00000280: 6044 d1ba 386b f8bd 1518 57be 8125 f6be
00000290: 26c1 a539 3b59 3ebe 8e28 863e 22c3 283f
000002a0: 9ad5 c8bc 036a c9bd 5f70 eb3d 576b 2cbe
000002b0: c4fe 41be a37e 163d f4b9 083d 7ff2 15be
000002c0: c761 8ebe 3052 8abe 9986 07bd 1e4e 4f3e
000002d0: f16b c5bd 9df6 c8be f6dc 0dbf 9542 9f3d
000002e0: 1cb4 2d3c 7def b53b 3d63 243e 08c8 41be
000002f0: d334 a9be 8261 74be 59a4 2bbd daa5 ae3e
00000300: 603f 0c3e 183c f4be 25a1 853d a206 b3be
00000310: 8b72 0cbe 93e4 f13c d42f a03d d028 ca3e
00000320: 05be 4bbe f539 e13d 3a3f d9bd 99c9 16be
00000330: 4e4d 6fbf e014 553d b40d 1fbe acff a0bd
00000340: 41ed 9d3e cd0b 003f 218d 5fbe 9091 96bd
00000350: 23ec 9d3d 966a e73c b35c 7fbe 6f18 19be
00000360: 5c66 203e 9fe2 753d 5e85 3bbe 11de 75bf
00000370: ce69 403d 3d35 143b a1d1 9cbe e1ac 303e
00000380: ea5d 263c d538 66be 4ad6 b43e 0c61 4a3e
00000390: fbf0 22bf 8240 313e 50e2 82be 4335 ffbd
000003a0: 84d6 19be 40f5 ef3d 9285 c6bc ebe9 693e
000003b0: b3cc babd d296 dcbe ef9a 7fbd d0c8 063e
000003c0: 6162 153a 3f6d 4d3d 4eaa 8fbd 8d7b d5bb
000003d0: 3882 163c 3716 f6bd a594 b73e 793b 18be
000003e0: 85c9 47be a658 8a3d aca7 5cbe 6dd3 dbbd
000003f0: 7757 68bc efe4 72be b229 253e f1b5 40bb

fc1.bias f4 [64]
0.24576828 -0.15912284 -0.14053673 -0.021414587 0.08252679 -0.02758847 -0.14456794 -0.05825297
0.026442314 -0.30214164 0.10222837 0.17143914 0.06076612 0.32453042 -0.14905274 -0.11343974
0.016931914 0.06692698 -0.029815473 -0.17305337 -0.21718848 0.07214376 -0.02016238 -0.081815
-0.07449904 0.08429003 -0.03031484 -0.2524847 0.15167372 0.20479766 -0.121606566 -0.07873342
0.096254565 -0.036556326 -0.092724115 -0.032310117 -0.09582112 0.043166835 -0.06870127 -0.18249254
0.00022008056 -0.085013986 0.019897291 0.19358836 0.15227303 -0.12497284 0.08512922 -0.3978907
-0.2485424 -0.03635755 -0.15931596 0.022327887 -0.05926405 -0.08613243 -0.25671476 -0.018120809
0.074598946 -0.05561706 -0.10230125 0.05609505 -0.056695662 0.07124813 0.061600856 0.19330852
00000000: aeaa 7b3e 19f1 22be dce8 0fbe a56d afbc
00000010: ce03 a93d 3701 e2bc 9e09 14be ab9a 6ebd
00000020: 8d9d d83c 4fb2 9abe 1c5d d13d be8d 2f3e
00000030: e5e5 783d da28 a63e 48a1 18be 1853 e8bd
00000040: ccb4 8a3c 0311 893d 943f f4bc e734 31be
00000050: a866 5ebe 1cc0 933d 932b a5bc 9f8e a7bd
00000060: f492 98bd 40a0 ac3d d456 f8bc ad45 81be
00000070: 5b50 1b3e 7ab6 513e dd0c f9bd fd3e a1bd
00000080: 1d21 c53d 16bc 15bd 24e6 bdbd 9d57 04bd
00000090: dd3d c4bd b5cf 303d 40b3 8cbd 53df 3abe
000000a0: 6dc5 6639 d01b aebd a5ff a23c 073c 463e
000000b0: 76ed 1b3e c3f1 ffbd 3a58 ae3d 54b8 cbbe
000000c0: e681 7ebe a8eb 14bd b923 23be f9e8 b63c
000000d0: dcbe 72bd 3366 b0bd 1e70 83be 1772 94bc
000000e0: 55c7 983d b7ce 63bd 5183 d1bd ecc3 653d
000000f0: b639 68bd 8aea 913d 2e51 7c3d abf2 453e

fc2.weight f4 [64, 64]
-0.25967973 0.12809657 -0.356579 0.16613448 -0.5050854 -0.29876 -0.27170643 -0.34449774
0.41753364 0.39971638 -0.37966114 0.16607085 0.14984222 0.017663874 -0.083234474 0.056546934
0.21771441 -0.49159226 -0.023779843 0.36589053 0.19651836 -0.12540255 0.03216378 0.0022792297
0.10399769 0.25521937 0.30286476 0.073467344 0.01545505 0.05084488 0.0006092849 0.023861405
0.44299534 0.384843 0.27898467 0.3706319 -0.31071872 -0.20767301 0.43816835 -0.20193842
-0.07607889 -0.17023426 0.0502733 -0.1847635 0.10744087 0.36087823 -0.18863107 0.32804465
0.22673051 0.13147017 -0.13454135 -0.21031874 0.19691388 -0.01580775 0.2134625 -0.1475897
-0.030006973 -0.026335943 0.31776148 0.03529892 0.028701054 -0.0108368965 -0.5903303 -0.32229146
-0.043031204 0.03420838 -0.19260481 0.19020279 0.06757638 -0.3134016 -0.029985346 0.15667704
-0.23268254 -0.109677464 -0.27193347 0.34408236 0.14203453 -0.03627779 -0.09415611 0.21108639
0.10776406 -1.0502921 0.42455307 -0.017549772 -0.019807879 0.23820144 0.07319468 0.32588303
-0.059996225 0.14539957 0.24614803 -0.41279832 0.38009793 0.32414353 -0.005528581 0.071906194
-0.248582 0.1373185 -0.4432327 -0.090615936 0.049119733 0.19384807 -0.16085498 -0.30134237
-0.48176733 -0.012116046 0.25737193 -0.03401667 -0.0917119 -0.16751881 0.15635057 -0.016218899
0.011499949 0.15492502 -0.06855972 0.0998289 0.2639123 0.31045616 0.09737043 -0.26446643
0.14136304 -0.10972443 0.21383438 0.21167652 -0.42920846 -0.01828774 0.38715643 0.050129455
0.13610655 0.0025799936 0.22004896 -0.18560944 -0.048539914 0.24856596 0.17800124 -0.023765597
0.15409967 0.3634095 -0.0016164292 -0.882793 0.32520726 -0.11272715 -0.16153643 -0.07630828
-0.34457114 0.272387 0.10964343 0.06323572 0.07422479 -0.24482563 -0.007205514 0.24951884
0.12553889 0.43583784 0.3109899 0.025215277 0.11905422 -0.09643932 -0.04636314 0.08410706
0.21902984 -0.187311 -0.0009674427 0.2637489 -0.17965673 -0.31388092 0.1311943 0.09173994
0.64945066 -0.21847276 0.07611048 -0.053229038 -0.08537754 0.33256572 0.0030690609 -0.1498129
0.037703242 0.18711713 0.047612205 0.33358014 0.29672432 -0.5412245 -0.010855239 -0.093780056
-0.19211571 -0.06645914 -0.2429871 0.23714684 0.17459777 -0.06339134 0.23995589 -0.16859
0.31859484 -0.14721765 0.1668366 0.14345488 -0.027602771 0.16681886 -0.18739568 0.31769294
-0.23185764 -1.0865201 0.22949496 -0.03260796 0.005406421 -0.07366187 -0.082639635 -0.0005447577
0.16257489 0.34271032 -0.12659304 0.017060457 0.16391896 -0.016398378 -0.26133236 -0.0036960444
0.52862763 -0.1281268 -0.8136664 -0.04648807 0.2837928 -0.40659377 0.26582244 -0.20829102
0.1262366 -0.1898721 -0.034368016 -0.70287865 -0.49140272 -0.14786151 0.108365335 0.02418906
0.07406876 -0.04355725 -0.20581397 -0.27930227 0.12106989 -0.32158917 0.052107193 -0.14660995
-0.15771344 0.24789402 -0.43610412 0.37050375 0.17226885 0.02788125 -0.9302739 0.09408936
-0.18541747 -0.1425988 -0.14332709 -0.16102166 0.0020395708 0.08816819 0.35356724 0.35722378
00000000: bef4 84be bf2b 033e 8691 b6be 281f 2a3e
00000010: 474d 01bf 12f7 98be 1b1d 8bbe 0262 b0be
00000020: f8c6 d53e a0a7 cc3e f262 c2be 7a0e 2a3e
00000030: 3d70 193e d4b3 903c d676 aabd c29d 673d
00000040: 87f0 5e3e fbb1 fbbe f2cd c2bc 0156 bb3e
00000050: 1c3c 493e 8769 00be 2bbe 033d 215f 153b
00000060: befc d43d 1dac 823e 1711 9b3e 0c76 963d
00000070: 2e37 7d3c b942 503d 6bb8 1f3a fe78 c33c
00000080: 49d0 e23e 240a c53e 14d7 8e3e 77c3 bd3e
00000090: 8616 9fbe 3ca8 54be 9a57 e03e f2c8 4ebe
000000a0: 40cf 9bbd e451 2ebe 60eb 4d3d a532 3dbe
000000b0: f509 dc3d 08c5 b83e 8128 41be 78f5 a73e
000000c0: 0b2c 683e 1ea0 063e 35c5 09be cc5d 57be
000000d0: cba3 493e 417f 81bc ea95 5a3e c121 17be
000000e0: 2fd1 f5bc 7abe d7bc a2b1 a23e 9a95 103d
000000f0: 791e eb3c 3d8d 31bc e31f 17bf 6303 a5be
00000100: 7d41 30bd 161e 0c3d 323a 45be 85c4 423e
00000110: 7c65 8a3d 2d76 a0be d4a3 f5bc f26f 203e
00000120: 5544 6ebe 949e e0bd dd3a 8bbe 902b b03e
00000130: 8071 113e 0598 14bd ebd4 c0bd 0827 583e
00000140: 67b3 dc3d f96f 86bf 055f d93e 8ac4 8fbc
00000150: 2244 a2bc 14eb 733e 18e7 953d 24da a63e
00000160: 9abe 75bd a0e3 143e 3b0e 7c3e 4d5a d3be
00000170: 329c c23e 24f6 a53e 1929 b5bb 8e43 933d
00000180: 488c 7ebe 399d 0c3e 65ef e2be d994 b9bd
00000190: c631 493d 1c80 463e 2bb7 24be 8c49 9abe
000001a0: 35aa f6be 6182 46bc 41c6 833e 1055 0bbd
000001b0: 73d3 bbbd 0d8a 2bbe 5d1a 203e 7fdd 84bc
000001c0: 486a 3c3c aaa4 1e3e 0a69 8cbd 1873 cc3d
000001d0: 831f 873e 1cf4 9e3e 266a c73d 2568 87be
000001e0: 79c1 103e 34b7 e0bd 66f7 5a3e bbc1 583e
000001f0: 36c1 dbbe 2cd0 95bc 5e39 c63e 8b54 4d3d
00000200: 845f 0b3e 1c15 293b 8454 613e 6710 3ebe
00000210: cad1 46bd 1388 7e3e f545 363e 12b0 c2bc
00000220: 4ecc 1d3e cf10 ba3e 5dde d3ba b9fe 61bf
00000230: 9181 a63e 7edd e6bd ce69 25be 8447 9cbd
00000240: a16b b0be 4f76 8b3e bc8c e03d bb81 813d
00000250: 2b03 983d 92b3 7abe 3b1c ecbb de81 7f3e
00000260: 448d 003e 2326 df3e 113a 9f3e 4590 ce3c
00000270: b3d2 f33d fa81 c5bd 47e7 3dbd 5340 ac3d
00000280: 5c49 603e 74ce 3fbe fb9b 7dba 190a 873e
00000290: eff7 37be 00b5 a0be cc57 063e 26e2 bb3d
000002a0: 6642 263f 53b7 5fbe d0df 9b3d b106 5abd
000002b0: 6bda aebd 0e46 aa3e 4c22 493b 8e68 19be
000002c0: b76e 1a3d a29b 3f3e 0405 433d 04cb aa3e
000002d0: 40ec 973e b08d 0abf 2cda 31bc c20f c0bd
000002e0: fbb9 44be bb1b 88bd 9cd1 78be 9fd6 723e
000002f0: c2c9 323e 52d3 81bd ffb6 753e dba2 2cbe
00000300: dd1e a33e 39c0 16be 37d7 2a3e d6e5 123e
00000310: 351f e2bc 90d2 2a3e a7e4 3fbe a6a8 a23e
00000320: 176c 6dbe 1713 8bbf ba00 6b3e ed8f 05bd
00000330: 5928 b13b 09dc 96bd f83e a9bd 12ce 0eba
00000340: 087a 263e ba77 af3e 9ba1 01be 5fc2 8b3c
00000350: 5fda 273e e455 86bc 5bcd 85be 5639 72bb
00000360: 2454 073f ac33 03be 714c 50bf 466a 3ebd
00000370: 4a4d 913e 0f2d d0be e119 883e 3e4a 55be
00000380: 2b44 013e d56d 42be 7ac5 0cbd dbef 33bf
00000390: 2399 fbbe 0269 17be a5ee dd3d 2328 c63c
000003a0: 5db1 973d 1669 32bd e6c0 52be b500 8fbe
000003b0: 7ef3 f73d 56a7 a4be 5a6e 553d eb20 16be
000003c0: a27f 21be eed7 7d3e 0a49 dfbe abb2 bd3e
000003d0: 3f67 303e 3867 e43c 6e26 6ebf ecb1 c03d
000003e0: 14de 3dbe 6b05 12be 56c4 12be dde2 24be
000003f0: 52aa 053b 8691 b43d c406 b53e 09e6 b63e

fc2.bias f4 [64]
0.013225473 0.08112252 0.04322395 -0.08268999 0.67787033 -0.13649349 0.44744933 0.11061616
0.4467261 0.75905097 -0.22237398 0.15623188 0.12110667 -0.058977783 -0.00074402103 0.19516464
0.28915733 -0.1470648 -0.22959328 0.43338913 0.25398487 0.8975743 -0.29928818 -0.145241
-0.12493267 -0.21806385 0.07787223 0.026888655 -0.031327643 0.24358895 0.053978946 0.45302042
0.049568623 0.044344384 0.079515085 0.04238086 0.014058297 -0.27852947 -0.2659118 0.053358655
-0.15494761 0.8454641 0.70753807 -0.20132218 0.13692847 -0.18779373 0.57361525 -0.13513465
0.14150065 0.037378117 -0.070605576 0.7917137 0.27014655 -0.04936101 0.2776183 -0.26148438
-0.33832788 -0.30405563 -0.04989813 0.10270499 0.037463665 0.607354 0.17416313 -0.2378781
00000000: a8af 583c 9023 a63d 990b 313d 5f59 a9bd
00000010: e988 2d3f f3c4 0bbe 1418 e53e ba8a e23d
00000020: 49b9 e43e 2a51 423f 01b6 63be 40fb 1f3e
00000030: c606 f83d b092 71bd 680a 43ba 3dd9 473e
00000040: 6e0c 943e 2898 16be 801a 6bbe 2ee5 dd3e
00000050: 4e0a 823e 6ec7 653f 4d3c 99be 0fba 14be
00000060: b3dc ffbd 214c 5fbe 7a7b 9f3d 9945 dc3c
00000070: 6a51 00bd 626f 793e 0719 5d3d 4bf2 e73e
00000080: 7808 4b3d 75a2 353d ced8 a23d 8d97 2d3d
00000090: c554 663c 6a9b 8ebe 9725 88be 9b8e 5a3d
000000a0: 96aa 1ebe 5670 583f 3721 353f 6727 4ebe
000000b0: fa36 0c3e 004d 40be 73d8 123f bd60 0abe
000000c0: 8ce5 103e cc19 193d a899 90bd c0ad 4a3f
000000d0: a650 8a3e c52e 4abd fc23 8e3e 48e1 85be
000000e0: 5039 adbe 2ead 9bbe fb61 4cbd fe56 d23d
000000f0: 8073 193d 8d7b 1b3f d257 323e 5196 73be

fc3.weight f4 [4, 64]
-0.082152754 0.14044349 0.30596817 -0.23148525 0.2589193 0.54395294 0.18199554 -0.10715387
0.16121341 0.20256908 -0.2148334 0.4233392 0.10204074 -0.16754991 0.50218296 0.02049897
0.38084728 0.20515074 0.037924726 0.18114026 0.19763722 0.27355963 -0.3351964 -0.30507848
0.57614934 -0.37992504 -0.6051107 0.2231754 0.7518944 0.13875332 -0.49615288 0.18757509
0.09583397 0.31801876 -0.08696651 0.14117374 0.02057913 -0.30166763 -0.23266573 0.33098614
0.14863247 0.21366878 0.19122858 -0.527225 0.088892944 0.15798138 0.23020573 0.20987676
0.35518613 0.21886511 0.24486257 0.256656 0.18137607 0.13448724 0.04839892 -0.18394457
-0.18939795 -0.3943024 0.0674156 0.10692194 0.20877625 0.24451031 0.098893836 0.33002687
0.13941364 0.15312049 0.2981581 -0.16327412 0.2772072 0.56383497 0.12525256 0.05454907
0.18654427 0.21559513 -0.10590958 0.08905701 0.18433268 0.23380813 0.71805227 0.067534216
0.36642423 -0.0011326342 -0.0900118 0.16972655 0.16884005 0.2708007 -0.32344106 0.017369282
0.38854077 -0.09662065 0.3538022 0.1905632 0.52808523 0.16909915 -0.16949293 0.24879898
0.039326955 0.26565644 0.1269863 0.24852732 0.1126535 -0.24291444 -0.20183036 0.32669437
-0.03243483 0.30402917 0.1606593 -0.21266092 0.21268125 -0.093259916 0.22319075 0.3202255
0.36151636 0.14540449 0.28482944 0.19213527 0.1124988 0.23453894 0.02817889 -0.11851059
-0.25392973 -0.3947215 -0.030471206 0.10693287 0.11513969 0.22625856 0.11308084 0.26061937
0.29290992 0.31482598 -0.07330998 -0.1592841 0.28684512 0.58337873 0.20163296 0.114185214
0.16192776 0.21685863 -0.4567319 0.25916088 0.12925623 -0.35179946 -0.14371923 0.23484787
0.27469695 -0.46646634 -0.20862032 0.07521729 -0.10673791 0.3117926 -0.18110667 0.08400883
0.5341707 0.039597712 -0.1359698 -0.25395274 0.47833782 0.23041464 -0.5322185 0.08907932
0.036472805 0.19515409 0.21276015 0.19974075 0.114216775 -0.2083961 -0.3266252 0.23385169
0.33772117 0.25681645 0.23179704 -0.35243925 0.13075724 -0.34071362 0.22795843 0.30715343
0.3237168 0.087357715 0.28174475 0.30204907 0.16801502 0.4922016 0.13068077 0.14283055
-0.21768267 -0.005986075 0.02990421 0.06370157 0.039648455 0.20229155 -0.25966325 -0.048399635
0.13931124 0.23721687 0.262911 -0.3284932 0.15607215 -0.112682626 0.07095757 0.20533673
0.11851727 0.253957 -0.16037549 0.36469677 0.39930084 0.08590651 0.6520649 0.06480094
0.4124396 0.403618 -0.2803918 0.23338626 -0.03785825 0.36691663 -0.07549471 0.15851225
0.32441813 -0.21236555 -0.08497319 0.12579942 0.36124107 0.03696968 -0.66310954 0.13923371
0.10363913 0.3315128 0.21307805 0.18532321 -0.07462546 -0.07085879 -0.05039531 0.3027039
-0.3703992 0.2788871 0.21078782 -0.21085899 0.45758188 -0.6379967 0.20386073 0.2648412
0.022346675 0.050977897 0.38345462 0.21112204 0.120280966 0.40654662 0.2590772 0.12734799
-0.33712718 -0.10017322 -0.35358477 -0.24659559 -0.3136561 0.24658169 0.15344469 0.22856453
00000000: b43f a8bd 6bd0 0f3e dca7 9c3e 780a 6dbe
00000010: 1291 843e 8040 0b3f 0a5d 3a3e 7d73 dbbd
00000020: 2115 253e 456e 4f3e 49fd 5bbe eabf d83e
00000030: bcfa d03d 3492 2bbe 108f 003f 75ed a73c
00000040: 6afe c23e 0913 523e f556 1b3d d57c 393e
00000050: 6961 4a3e 0210 8c3e dd9e abbe 3f33 9cbe
00000060: 867e 133f 8985 c2be 89e8 1abf 1888 643e
00000070: 277c 403f 5a15 0e3e c007 febe af13 403e
00000080: 9a44 c43d 5bd3 a23e 7f1b b2bd d98f 103e
00000090: 9095 a83c 2e74 9abe ed3f 6ebe 0477 a93e
000000a0: 1c33 183e fdcb 5a3e 6dd1 433e 38f8 06bf
000000b0: 810d b63d dfc5 213e 0dbb 6b3e efe9 563e
000000c0: f5da b53e 2d1e 603e 41bd 7a3e 6a68 833e
000000d0: a6ba 393e 06b7 093e f23d 463d f75b 3cbe
000000e0: 89f1 41be 01e2 c9be 3111 8a3d e4f9 da3d
000000f0: 71c9 553e e960 7a3e da88 ca3d 48f9 a83e
00000100: 73c2 0e3e 9ecb 1c3e 2ea8 983e 5531 27be
00000110: 1aee 8d3e 7d57 103f 3542 003e d86e 5f3d
00000120: 7605 3f3e f8c4 5c3e 1fe7 d8bd 8663 b63d
00000130: b5c1 3c3e 666b 6f3e 46d2 373f 614f 8a3d
00000140: f59b bb3e e674 94ba 1b58 b8bd cccc 2d3e
00000150: 68e4 2c3e 64a6 8a3e 119a a5be 064a 8e3c
00000160: d1ee c63e 0ce1 c5bd 9025 b53e 0023 433e
00000170: 9830 073f 5428 2d3e 8e8f 2dbe 29c5 7e3e
00000180: 4d15 213d 1f04 883e b208 023e f27d 7e3e
00000190: e1b6 e63d 90be 78be 9eac 4ebe 7c44 a73e
000001a0: 62da 04bd b6a9 9b3e df83 243e c9c3 59be
000001b0: 1dc9 593e 0eff bebd 1e8c 643e 99f4 a33e
000001c0: ac18 b93e eae4 143e 2ad5 913e 1cbf 443e
000001d0: c565 e63d fa2a 703e 6ad7 e63c aeb5 f2bd
000001e0: 1403 82be f018 cabe c09e f9bc 9fff da3d
000001f0: 5cce eb3d 53b0 673e ed96 e73d e76f 853e
00000200: 4af8 953e df30 a13e 8b23 96bd 5f1b 23be
00000210: 5ddd 923e 4f58 153f df78 4e3e f0d9 e93d
00000220: 64d0 253e 3010 5e3e c3d8 e9be bcb0 843e
00000230: bf5b 043e 0f1f b4be 222b 13be f67b 703e
00000240: 14a5 8c3e add4 eebe 91a0 55be 860b 9a3d
00000250: 6899 dabd 48a3 9f3e 0774 39be d20c ac3d
00000260: 69bf 083f 3631 223d ab3b 0bbe 1806 82be
00000270: b2e8 f43e d1f1 6b3e 793f 08bf 386f b63d
00000280: 8264 153d 79d6 473e ccdd 593e d788 4c3e
00000290: 7cea e93d ca65 55be 6b3b a7be d176 6f3e
000002a0: cae9 ac3e 727d 833e 345c 6d3e eb72 b4be
000002b0: 3ae5 053e 0472 aebe ef6d 693e 3743 9d3e
000002c0: 35be a53e 9ae8 b23d d940 903e 2da6 9a3e
000002d0: 210c 2c3e d901 fc3e 2ed1 053e 2c42 123e
000002e0: 35e8 5ebe d626 c4bb acf9 f43c f875 823d
000002f0: 6b66 223d 8425 4f3e 95f2 84be b23e 46bd
00000300: 9ba7 0e3e fbe8 723e 459c 863e 4330 a8be
00000310: 61d1 1f3e 26c6 e6bd 3452 913d cb43 523e
00000320: 2fb9 f23d a706 823e 7939 24be 89b9 ba3e
00000330: 2971 cc3e c1ef af3d baed 263f 5bb6 843d
00000340: 492b d33e 05a7 ce3e 848f 8fbe cffc 6e3e
00000350: 4111 1bbd 7fdc bb3e f89c 9abd 0951 223e
00000360: 221a a63e 5b76 59be 6d06 aebd 90d1 003e
00000370: 97f4 b83e 856d 173d 8cc1 29bf 4893 0e3e
00000380: c140 d43d 0cbc a93e 2231 5a3e 5ec5 3d3e
00000390: 3cd5 98bd 6a1e 91bd 506b 4ebd 01fc 9a3e
000003a0: f7a4 bdbe 4aca 8e3e c3d8 573e 6beb 57be
000003b0: 2c48 ea3e c053 23bf dec0 503e 4499 873e
000003c0: 6010 b73c 33ce 503d 2a54 c43e 6030 583e
000003d0: de55 f63d e126 d03e c4a5 843e 8367 023e
000003e0: ef9b acbe 9e27 cdbd 1009 b5be 8e83 7cbe
000003f0: 8897 a0be e97f 7c3e 9b20 1d3e d20c 6a3e

fc3.bias f4 [4]
0.63349956 0.44458902 0.3950251 0.44178042
00000000: 072d 223f 2ca1 e33e bb40 ca3e 0b31 e23e
